data.pth (torch, 5023 bytes, 6 tensors)

l1.weight f4 [8, 47]
00000000: a368 653e 429e c93e 31d0 ac3e 8ba5 5ebd
00000010: 25b7 953e 7029 a33e ce59 093f aa48 083f
00000020: ba1b e7be 1199 c23e 27af 6b3e 4617 05bf
00000030: dc9b acbd 08b2 563e 1ad9 9ebe d71d 893e
00000040: 79bc b9be 9d7f 423e 537e ec3e 0acf f33e
00000050: 9aae c2be ed53 d23e 8ab9 e93d 4186 063f
00000060: 205d d7be c3eb e33e ce83 c43e 41ca 48be
00000070: 6417 e03e 19a6 8c3f 34a1 cfbe 526a 053f
00000080: 67c0 ddbc 1b37 a63e 97aa 12bd ee87 debe
00000090: 4185 debe 9b62 ea3d 0c6e c4bd c35c a7be
000000a0: 101d c6be 3df7 4d3e 7485 a5be e527 733f
000000b0: 4264 bc3e a741 633f f97e cabe ab35 a0be
000000c0: 8efe 0cbf e68c 4e3f 56d7 103e 66d0 c6be
000000d0: 627d 95be 303b 6e3e 353e 02be 6951 3d3f
000000e0: 3bc1 d3be 93cd 7f3e cd8d 343f 0098 153f
000000f0: 558a d13e 7053 033f 2568 8dbe 0810 fd3e
00000100: 413e 5b3e 7712 5ebe f947 85be 2417 ff3e
00000110: b9cf 093f 5ff9 053f 05bd febe 49b6 e43e
00000120: e4d8 0c3f b7fa 083f ea2e 273f 4ef0 383f
00000130: ba30 abbe 3683 e13e 03f0 2b3f b4de 143f
00000140: d374 043f 50bb c1be 1b22 fb3e 01af ba3e
00000150: 4414 3bbe 6c8f 2ebf 3b49 f63e a59d d53e
00000160: e087 97be 834d 4b3f e0d4 d2be 311c 353f
00000170: ccc9 9cbe c63b 3e3e a02c ce3e 6fd8 c23e
00000180: 7d28 07bf 99af 163f 9300 093f 10cd af3e
00000190: ae1a 603e 190e d03e 99a1 2bbf 1f64 f83e
000001a0: be21 7bbe 1682 21bf cff2 adbe 8567 aebe
000001b0: 17b8 323f 0898 d73e 31f5 1c3f 6080 8abd
000001c0: a2cc 003f 7da7 9f3e 0e13 fa3e 3a0a 88be
000001d0: c621 2bbe 145a 153f cae8 46be fa6c a7be
000001e0: 3867 bcbe fb66 93be 61c1 1ebf 8109 b73e
000001f0: 43fc 053f 942c dfbe 625f 93be c2e6 6fbe
00000200: f1fa d73e fc12 313f 9ba3 163f 222c 3e3e
00000210: 9b6b 0d3f 503c 183f a9b8 2d3f 30d7 e53e
00000220: f3e5 e8be f01a f53d 82be ecbe 1575 fa3e
00000230: 3282 ea3e ffbe 68be 49d7 1abf 5e32 77be
00000240: 1456 573e ee97 fb3e dbe7 003f ee36 8b3e
00000250: 31ce 0f3f d547 fdbe 8f84 ca3e 0765 f8bd
00000260: acd7 0bbf f8e1 95be e97b 46be e7e6 333f
00000270: 565f 91be 9cea 1e3f 2a99 04be 1ddf 0c3f
00000280: c212 93be 2f6d 013f 2b05 d0bd 4d19 2ebe
00000290: 8ea7 553f 5006 7cbd 5670 08be 72fa b1be
000002a0: 5a83 3fbe 77aa b6be caaa 2fbf 5691 213f
000002b0: 5469 01bf 186b 3fbe c5d6 e03c a937 dfbe
000002c0: da24 073f 9332 3a3f 6ba3 d7be 66cf 41bf
000002d0: 1f6d 393f ef48 323f 6874 1abe 0b23 94be
000002e0: c709 0cbf b908 d3be 8603 38bf 9dd0 56bd
000002f0: 9441 0a3f 47d6 143f 92ba fbbe c620 1e3f
00000300: aa63 c7be 0694 86be 2cc9 103e 4311 3abe
00000310: 32a2 8a3e adc1 a4be 3518 243d 2521 853e
00000320: 25df 1e3e 5203 54be aeae 4c3e d3f1 fb3e
00000330: 470e bc3d 8d24 4f3e dcd4 66be f356 103f
00000340: 21c7 3abe 602e 4c3e 8de3 5bbc 0913 1abf
00000350: bed1 f03d 487d 90be cd7a c6bd f80a bc3e
00000360: 18ae 1dbd 81b6 213e 587b ec3d 8bf9 d83d
00000370: 5bf0 4d3e a590 e93d 5498 053f a686 26bd
00000380: 4eda 3f3e 1e4b 8a3e 01ec 7f3f 05d4 f83d
00000390: 5479 133e 7fca e03e 2f52 8e3e 0ba3 213e
000003a0: 5302 91bd 53d8 1cbd 9224 193f e0e6 283f
000003b0: c349 603f f4a8 f7be a169 173f 5179 95be
000003c0: 49a0 b6be 75a5 103e 4bf4 b0be 86e7 ab3e
000003d0: f5a5 b9be 875b eabd bce0 ca3e 519e ea3e
000003e0: f6d8 78be c78e e43e 2f35 f53e 96a2 e53e
000003f0: 40e9 873d b505 48be 8119 223f 2d3d a03e
0.22403197 0.39378554 0.33752587 -0.054357093 0.2924129 0.31867552 0.53652656 0.53235877
-0.4513834 0.38007405 0.23016034 -0.5198864 -0.08428165 0.20966351 -0.3102501 0.26780578
-0.36276606 0.18993993 0.46190128 0.47618896 -0.38023835 0.41079655 0.11412342 0.52548605
-0.42063236 0.4451581 0.3838181 -0.19608404 0.43767846 1.0988189 -0.40552676 0.52115357
-0.027069284 0.32463917 -0.03580722 -0.4346308 -0.4346104 0.11444589 -0.09591302 -0.3268796
-0.38694048 0.20113845 -0.3232838 0.9498275 0.3679524 0.8877205 -0.39549997 -0.31290945
-0.5507592 0.80683744 0.14144644 -0.3883087 -0.29197222 0.23264766 -0.12719043 0.7395235
-0.4135836 0.24980764 0.7052887 0.5843506 0.4092585 0.5129919 -0.27618518 0.49426293
0.21410467 -0.21686731 -0.26031473 0.49822342 0.53832585 0.52333635 -0.49753585 0.44670323
0.5501845 0.5350756 0.6530596 0.72241676 -0.33435613 0.44045419 0.67163104 0.5815232
0.5174076 -0.3783822 0.49049458 0.36461642 -0.1826945 -0.68187594 0.48102745 0.41721836
-0.29595852 0.7941515 -0.41178036 0.7074614 -0.3062271 0.1857749 0.4026842 0.3805575
-0.52796155 0.5886169 0.535165 0.34336138 0.21885177 0.40635756 -0.67043453 0.48513886
-0.2452459 -0.6308912 -0.3397431 -0.34063354 0.6981215 0.42108178 0.6131163 -0.06762767
0.50312245 0.3118247 0.48842663 -0.26570302 -0.16712102 0.58340573 -0.1942474 -0.3270033
-0.367975 -0.28789505 -0.6201382 0.35749438 0.52338046 -0.43588698 -0.2878371 -0.23427871
0.4218364 0.6916959 0.5884339 0.18571523 0.5524232 0.5946703 0.67859894 0.44890738
-0.45487937 0.119680285 -0.46239096 0.48917452 0.45802456 -0.22729109 -0.6048475 -0.24140307
0.2102893 0.4913935 0.50353783 0.27190346 0.56174 -0.49468866 0.3955426 -0.121286444
-0.54625964 -0.29273963 -0.19383205 0.70274204 -0.28393048 0.62076735 -0.12949052 0.55027944
-0.2872525 0.50557226 -0.10157236 -0.17001839 0.83458793 -0.061529458 -0.13324103 -0.34761387
-0.1870245 -0.3567693 -0.6861998 0.6311239 -0.5055134 -0.18693197 0.02744616 -0.43597153
0.52790606 0.7273342 -0.42116866 -0.7570709 0.7243213 0.6964254 -0.15083468 -0.28932986
-0.5470242 -0.41217592 -0.71880376 -0.052445043 0.54006314 0.5813946 -0.4916578 0.6176876
-0.38943225 -0.26284808 0.14139241 -0.18170647 0.2707687 -0.32179013 0.040062148 0.2600185
0.1551481 -0.20704392 0.1998851 0.49207935 0.09182411 0.20228787 -0.22542137 0.56382674
-0.18240024 0.19939566 -0.013420952 -0.60185295 0.11758755 -0.28220582 -0.09691391 0.36727118
-0.038496107 0.15792276 0.115469635 0.105944715 0.2011122 0.11404542 0.5218556 -0.040655755
0.1873562 0.27010435 0.9996949 0.121498145 0.14401752 0.43904492 0.27797076 0.15784852
-0.070805214 -0.03829224 0.59821427 0.6597729 0.8761255 -0.48371089 0.5914555 -0.2919412
-0.35669163 0.14125617 -0.3456138 0.33575076 -0.36259428 -0.11443239 0.39624584 0.4582391
-0.24301514 0.4464018 0.47892138 0.44850606 0.06636286 -0.19533427 0.63320166 0.31296673

l1.bias f4 [8]
00000000: f182 de3e 472e 343f 478e 8a3f bcd6 443f
00000010: f394 593f e64e 6f3f 92fe 2b3f 24d6 053f
0.43459275 0.70383114 1.082467 0.7689016 0.84992903 0.93479764 0.6718532 0.5227988

l2.weight f4 [8, 8]
00000000: 7af1 f53e df5a 893f 6f65 dc3e e3b7 cf3f
00000010: be5d d8be c809 f6be eb89 b93f f008 083f
00000020: 22dc 423e f5e9 9ebe 47b1 5cbe 466f 86be
00000030: 6e41 67be 7018 123e 6658 1d3e 8111 a9be
00000040: 201c b0bd b0ec 0a3e 7a9c 183b a941 fcbc
00000050: 0c75 b2be 5280 06be fc51 debd a0c9 f2bc
00000060: 105f bc3d d0d9 e2bc a079 52be b06b 42bd
00000070: 1009 873c b43a cdbd b878 7cbe 2a72 513e
00000080: a5d6 7dbf 36a7 903f 99f6 163f 99ef 583f
00000090: 3725 b23f 221f 9d3f e913 44bf caf3 89bf
000000a0: b84c 2dbd 6486 c7bd 1ea3 4e3e f98f 0bbe
000000b0: 9840 85be 301d bd3c 4c78 133e a073 56be
000000c0: 2944 5a3f dbd9 6c3f affd dfbe 6e67 d2bf
000000d0: f32e 823f 081f ac3e 591a 863f 0e08 a23f
000000e0: 77a4 4f3f 1169 95bf 7fc3 9c3f eaa4 1c3f
000000f0: 195b 853f 729b 3c3f 1741 24bf bb87 803f
0.48035794 1.0730857 0.43046138 1.6227993 -0.4225902 -0.48054338 1.4495214 0.5313864
0.19029287 -0.3103787 -0.21552001 -0.2625677 -0.22583553 0.14267135 0.15365753 -0.33021167
-0.085991144 0.13566852 0.0023286627 -0.030793028 -0.34854925 -0.13134888 -0.10855481 -0.029637158
0.09197819 -0.027691752 -0.20554209 -0.04746598 0.016483814 -0.10020962 -0.24655426 0.20453706
-0.99155647 1.1301029 0.5897003 0.84740597 1.3917607 1.2275126 -0.7659288 -1.0777524
-0.042309493 -0.0974243 0.20179412 -0.1362914 -0.26025844 0.023085207 0.14401358 -0.20942545
0.85260254 0.9251992 -0.43748233 -1.6437814 1.0170578 0.33617425 1.0476791 1.2658708
0.8111033 -1.1672689 1.2247161 0.6118914 1.0418426 0.7367469 -0.6416182 1.0041422

l2.bias f4 [8]
00000000: a7ee 003f da8b 20be d92a d7bd ba2d 8ebe
00000010: 448f a83e 856d a6be 414f 373e ac6a 293f
0.50364155 -0.15678349 -0.105062194 -0.27769262 0.32921803 -0.32505432 0.17901327 0.66178393

l3.weight f4 [6, 8]
00000000: 9db1 6d3f eac9 7d3e b440 3b3e 090b 20be
00000010: 4b7e a6bf 81a4 80be 9231 debf 4efb 103f
00000020: 7028 f13e cc6c d4bd 80fa 3f3e 3c8d bc3d
00000030: a310 623f ee41 69be f8b3 b8bf 2037 0dbe
00000040: fb67 563c 16c3 a8be 2d9a 803e 9e30 56be
00000050: e447 8ebf 2857 803d a424 8c3e 71b8 033f
00000060: 2625 283f 9000 023d 3c53 8fbe ee11 5e3e
00000070: fd74 a2bf 4b77 8a3e 958d 4f3f 9e3f bfbf
00000080: 688d a0bc a88b 97be 9c1f 86be d0d0 f23d
00000090: e87a 263f 4afb f0bd 63f2 a23e 9869 adbf
000000a0: c0c7 aabf f410 033e 3ebe 44be 76d8 423e
000000b0: 45f3 8a3e 2053 80be 4b83 29be 95bb 2b3f
0.9284914 0.24784055 0.18286401 -0.1562921 -1.3007292 -0.25125507 -1.7358878 0.5663346
0.47101164 -0.10372314 0.18747902 0.09206626 0.88306636 -0.22779056 -1.4429922 -0.1379056
0.013086314 -0.3296134 0.25117627 -0.20916983 -1.1115689 0.06266624 0.27371705 0.5145331
0.65681684 0.031738818 -0.2799319 0.21686527 -1.2691952 0.27044138 0.8107541 -1.494129
-0.019598678 -0.29598737 -0.2619599 0.11856234 0.6503129 -0.117666796 0.3182555 -1.354785
-1.3342209 0.12799436 -0.19213197 0.19027886 0.27138725 -0.2506342 -0.1655399 0.670831

l3.bias f4 [6]
00000000: ab86 c1bd d24b 3ebe 571e 903e 2567 41be
00000010: d996 973d d607 98be
-0.09449514 -0.1858361 0.28148147 -0.18887003 0.07401819 -0.29693478
